…
='CIFAR10', dim_in_decoder=4096, dropout=0.1, epochs=400, feat_mult=1, length=16, loss_sup='predsim', loss_unsup='none', lr=0.0005, lr_decay_fact=0.25, lr_decay_milestones=[200, 300, 350, 375], model='mlp', momentum=0.0, n_holes=1, no_batch_norm=False, no_cuda=False, no_detach=False, no_print_stats=False, no_similarity_std=False, nonlin='leakyrelu', num_hidden=3000, num_layers=3, optim='adam', pre_act=False, progress_bar=False, resume='', save_dir='./results/local-error', seed=1, target_proj_size=128, weight_decay=0.0)

Net(
  (layers): ModuleList(
    (0): LocalLossBlockLinear(
      (encoder): Linear(in_features=3072, out_features=3000, bias=True)
      (decoder_y): Linear(in_features=3000, out_features=10, bias=True)
      (linear_loss): Linear(in_features=3000, out_features=3000, bias=False)
      (bn): BatchNorm1d(3000, eps=1e-05, momentum=0.1, affine=True, track_running_stats=True)
      (nonlin): LeakyReLU(negative_slope=0.01, inplace=True)
      (dropout): Dropout(p=0.1, inplace=False)
    )
    (1): LocalLossBlockLinear(
      (encoder): Linear(in_features=3000, out_features=3000, bias=True)
      (decoder_y): Linear(in_features=3000, out_features=10, bias=True)
      (linear_loss): Linear(in_features=3000, out_features=3000, bias=False)
      (bn): BatchNorm1d(3000, eps=1e-05, momentum=0.1, affine=True, track_running_stats=True)
      (nonlin): LeakyReLU(negative_slope=0.01, inplace=True)
      (dropout): Dropout(p=0.1, inplace=False)
    )
    (2): LocalLossBlockLinear(
      (encoder): Linear(in_features=3000, out_features=3000, bias=True)
      (decoder_y): Linear(in_features=3000, out_features=10, bias=True)
      (linear_loss): Linear(in_features=3000, out_features=3000, bias=False)
      (bn): BatchNorm1d(3000, eps=1e-05, momentum=0.1, affine=True, track_running_stats=True)
      (nonlin): LeakyReLU(negative_slope=0.01, inplace=True)
      (dropout): Dropout(p=0.1, inplace=False)
    )
  )
  (layer_out): Linear(in_features=3000, out_features=10, bias=True)
)

Adam (
Parameter Group 0
    amsgrad: False
    betas: (0.9, 0.999)
    eps: 1e-08
    lr: 0.0005
    weight_decay: 0.0
)

Model mlp has 30010 parameters influenced by global loss

Train epoch=1, lr=5.00e-04, loss_local=0.4292, loss_global=0.0196, error=68.398%, mem=874MiB, max_mem=956MiB
Linear(in_features=3072, out_features=3000, bias=True), loss_sim=0.1200, loss_pred=0.0180, error=64.734%, num_examples=50000
…
