…
e, dataset='MNIST', dim_in_decoder=4096, dropout=0.1, epochs=100, feat_mult=1, length=16, loss_sup='sim', loss_unsup='none', lr=0.0005, lr_decay_fact=0.25, lr_decay_milestones=[50, 75, 89, 94], model='mlp', momentum=0.0, n_holes=1, no_batch_norm=False, no_cuda=False, no_detach=False, no_print_stats=False, no_similarity_std=False, nonlin='leakyrelu', num_hidden=1024, num_layers=3, optim='adam', pre_act=False, progress_bar=False, resume='', save_dir='./results/local-error', seed=1, target_proj_size=128, weight_decay=0.0)

Net(
  (layers): ModuleList(
    (0): LocalLossBlockLinear(
      (encoder): Linear(in_features=784, out_features=1024, bias=True)
      (linear_loss): Linear(in_features=1024, out_features=1024, bias=False)
      (bn): BatchNorm1d(1024, eps=1e-05, momentum=0.1, affine=True, track_running_stats=True)
      (nonlin): LeakyReLU(negative_slope=0.01, inplace=True)
      (dropout): Dropout(p=0.1, inplace=False)
    )
    (1): LocalLossBlockLinear(
      (encoder): Linear(in_features=1024, out_features=1024, bias=True)
      (linear_loss): Linear(in_features=1024, out_features=1024, bias=False)
      (bn): BatchNorm1d(1024, eps=1e-05, momentum=0.1, affine=True, track_running_stats=True)
      (nonlin): LeakyReLU(negative_slope=0.01, inplace=True)
      (dropout): Dropout(p=0.1, inplace=False)
    )
    (2): LocalLossBlockLinear(
      (encoder): Linear(in_features=1024, out_features=1024, bias=True)
      (linear_loss): Linear(in_features=1024, out_features=1024, bias=False)
      (bn): BatchNorm1d(1024, eps=1e-05, momentum=0.1, affine=True, track_running_stats=True)
      (nonlin): LeakyReLU(negative_slope=0.01, inplace=True)
      (dropout): Dropout(p=0.1, inplace=False)
    )
  )
  (layer_out): Linear(in_features=1024, out_features=10, bias=True)
)

Adam (
Parameter Group 0
    amsgrad: False
    betas: (0.9, 0.999)
    eps: 1e-08
    lr: 0.0005
    weight_decay: 0.0
)

Model mlp has 10250 parameters influenced by global loss

Train epoch=1, lr=5.00e-04, loss_local=0.1472, loss_global=0.4956, error=11.608%, mem=98MiB, max_mem=109MiB
Linear(in_features=784, out_features=1024, bias=True), loss_sim=0.0608, loss_pred=0.0000, error=100.000%, num_examples=60000
…
